models/super_resolution_f16.onnx (onnx, 120798 bytes, 8 tensors)

conv1.bias f2 [64]
0	0x2290	0.01282
1	0x2d39	0.0816
2	0x25dd	0.0229
3	0x1efb	0.006817
4	0xb24d	-0.1969
5	0xa55c	-0.02094
6	0x2f99	0.1187
7	0x305d	0.1364
8	0x3133	0.1625
9	0xa51b	-0.01994
10	0x240e	0.01584
11	0x2cb4	0.0735
12	0xae1d	-0.0955
13	0xab99	-0.05936
14	0x3214	0.19
15	0x2ef2	0.1085
16	0xaac8	-0.05298
17	0xaff4	-0.12427
18	0x2cc3	0.0744
19	0xb1a7	-0.1766
20	0x2c80	0.0703
21	0xace8	-0.07666
22	0xa818	-0.03198
23	0x3146	0.1648
24	0x95b4	-0.001392
25	0xaa30	-0.04834
26	0x31cc	0.1812
27	0x2e4f	0.0986
28	0xb024	-0.1294
29	0xa855	-0.03384
30	0xa1f0	-0.0116
31	0x2659	0.0248
32	0xae8b	-0.10223
33	0xab90	-0.05908
34	0xa674	-0.0252
35	0xb000	-0.125
36	0x3136	0.1628
37	0x31f3	0.1859
38	0xab46	-0.05682
39	0xa7f5	-0.03108
40	0xb079	-0.1398
41	0xaa2d	-0.04825
42	0xafab	-0.1198
43	0x2b01	0.05472
44	0x306a	0.138
45	0xaba3	-0.05966
46	0x31f9	0.1866
47	0xa736	-0.02817
48	0x2c5e	0.06824
49	0x2dd3	0.091
50	0x2e6a	0.1002
51	0x2f90	0.11816
52	0xb18c	-0.1733
53	0x31b4	0.1782
54	0x2d55	0.0833
55	0xb21f	-0.1913
56	0xa903	-0.03915
57	0x31db	0.183
58	0x3129	0.1613
59	0xafd3	-0.12225
60	0xa530	-0.02026
61	0x3164	0.1685
62	0x3183	0.1722
63	0x2a07	0.0471

conv1.weight f2 [64, 1, 5, 5]
0	0x2dc0	0.08984
1	0xb17f	-0.1718
2	0xb378	-0.2334
3	0x3395	0.2369
4	0x2f0b	0.11005
5	0x2bff	0.06247
6	0x31e5	0.1842
7	0xb573	-0.3406
8	0xabae	-0.06
9	0xaf82	-0.1173
10	0xad79	-0.0855
11	0x2db2	0.089
12	0xb70d	-0.4407
13	0x253d	0.02046
14	0xaf0d	-0.11017
15	0x2f36	0.1127
16	0xac23	-0.06464
17	0x2189	0.01081
18	0xad0e	-0.079
19	0x2afc	0.05457
20	0x3419	0.256
21	0x32c2	0.2112
22	0xb2bf	-0.2108
23	0x3093	0.143
24	0xac46	-0.0668
25	0xa383	-0.01467
26	0xaa2d	-0.04825
27	0x2df6	0.09314
28	0x34dd	0.304
29	0x9dd0	-0.005676
30	0x34f3	0.3093
31	0x225e	0.012436
32	0x2dfb	0.09344
33	0xb78e	-0.4722
34	0x23ab	0.01498
35	0x2ee6	0.1078
36	0x3067	0.1376
37	0xb193	-0.1742
38	0x33eb	0.2474
39	0xa17f	-0.010735
40	0xb25a	-0.1985
41	0xa2b9	-0.01313
42	0x2f5b	0.1149
43	0xb16f	-0.1698
44	0xaff5	-0.1243
45	0x9ef6	-0.006798
46	0xb197	-0.1747
47	0xad04	-0.07837
48	0xb1dc	-0.1831
49	0x3221	0.1915
50	0x3593	0.3484
51	0x2c37	0.06586
52	0x2d1e	0.07996
53	0x2d41	0.0821
54	0xae9c	-0.1033
55	0x26d2	0.02664
56	0x24a2	0.0181
57	0x2c0f	0.0634
58	0xb282	-0.2034
59	0xae37	-0.0971
60	0xafdb	-0.12274
61	0x2d7d	0.08575
62	0x340d	0.2532
63	0x2c99	0.07184
64	0xa696	-0.02573
65	0x3796	0.474
66	0x2170	0.01062
67	0x3440	0.2656
68	0x283b	0.03305
69	0x2fd5	0.1224
70	0xb40f	-0.2537
71	0xb3d3	-0.2445
72	0x2fff	0.12494
73	0xb0f6	-0.155
74	0x2ba5	0.05972
75	0x2d91	0.087
76	0x9379	-0.000912
77	0x3505	0.3137
78	0xa95a	-0.0418
79	0xad06	-0.0785
80	0x3404	0.251
81	0xb062	-0.137
82	0xb346	-0.2273
83	0x2519	0.01991
84	0x3273	0.2015
85	0xaf94	-0.1184
86	0xa7af	-0.03001
87	0xab46	-0.05682
88	0x2890	0.03564
89	0x2d5f	0.0839
90	0x3014	0.1274
91	0xa4d9	-0.01894
92	0x2bc5	0.0607
93	0x358e	0.3472
94	0xaf9e	-0.119
95	0xaec7	-0.1059
96	0x28c2	0.03717
97	0xac24	-0.0647
98	0x329d	0.2067
99	0xb810	-0.508
100	0xb2e3	-0.2152
101	0xa023	-0.00808
102	0xa6dd	-0.02681
103	0x3020	0.1289
104	0x32b3	0.2094
105	0xafb0	-0.1201
106	0x9c06	-0.00393
107	0x29c4	0.04504
108	0xade8	-0.0923
109	0x3039	0.132
110	0x230e	0.01378
111	0x2ea6	0.1039
112	0x288e	0.03558
113	0xad41	-0.0821
114	0xb48a	-0.2837
115	0xacb1	-0.0733
116	0xa35b	-0.014366
117	0xa67d	-0.02534
118	0x2df7	0.0932
119	0xaced	-0.07697
120	0x239f	0.014885
121	0x35f3	0.3718
122	0x3628	0.3848
123	0x2a6f	0.05026
124	0x23c3	0.01516
125	0xb14b	-0.1654
126	0x31cd	0.1813
127	0xb257	-0.1981
128	0x2aac	0.05212
129	0xb0f3	-0.1547
130	0xb497	-0.2869
131	0x2cb7	0.07367
132	0x3217	0.1903
133	0x214d	0.01035
134	0x34d0	0.3008
135	0xa8aa	-0.03644
136	0x3325	0.2233
137	0xac6f	-0.0693
138	0xa9b3	-0.04453
139	0x30f4	0.1548
140	0x28a9	0.0364
141	0xb038	-0.1318
142	0x3492	0.2856
143	0xa90b	-0.0394
144	0x3450	0.2695
145	0x2cb0	0.07324
146	0x352b	0.323
147	0xaec8	-0.10596
148	0x264c	0.0246
149	0xb424	-0.2588
150	0xb58d	-0.347
151	0x2bb5	0.0602
152	0xae68	-0.1001
153	0x249f	0.01805
154	0x2efc	0.10913
155	0x33e6	0.2468
156	0xb15b	-0.1674
157	0x3226	0.1921
158	0xb760	-0.461
159	0xb45e	-0.273
160	0xb373	-0.2328
161	0x310b	0.1576
162	0xb1c9	-0.1808
163	0xb6eb	-0.4324
164	0x2f2e	0.1122
165	0x9c11	-0.00397
166	0x2f17	0.1108
167	0x2b92	0.05914
168	0x31af	0.1776
169	0xa6b0	-0.02612
170	0x2f3c	0.11304
171	0x324d	0.1969
172	0xa830	-0.0327
173	0xb2f6	-0.2175
174	0x2ac4	0.05286
175	0x31fb	0.1869
176	0x37fe	0.4995
177	0x3196	0.1746
178	0xb0a8	-0.1455
179	0x269b	0.0258
180	0xa9f4	-0.0465
181	0xad6e	-0.08484
182	0x2dc8	0.09033
183	0xb411	-0.2542
184	0x30bd	0.1481
185	0x335d	0.2301
186	0xb209	-0.1886
187	0xa9d7	-0.04562
188	0xa251	-0.01234
189	0xb58b	-0.3464
190	0x2b8c	0.05896
191	0xadc7	-0.0903
192	0x3123	0.1605
193	0x3128	0.1611
194	0xae3d	-0.0975
195	0x292d	0.04044
196	0xa099	-0.00898
197	0xb032	-0.1311
198	0x1cc3	0.00465
199	0xb243	-0.1957
200	0xae0a	-0.09436
201	0x3488	0.2832
202	0xb27d	-0.2028
203	0x32c7	0.2118
204	0x3620	0.3828
205	0x3046	0.1335
206	0xb169	-0.1691
207	0xab9d	-0.05948
208	0x319b	0.1752
209	0xb3bb	-0.2416
210	0x31cc	0.1812
211	0x306c	0.1382
212	0xa8b5	-0.03677
213	0x987c	-0.00219
214	0x35c4	0.3604
215	0xa9e1	-0.04593
216	0xb494	-0.2861
217	0x2a33	0.04843
218	0xb31f	-0.2225
219	0xac1d	-0.0643
220	0xb1a7	-0.1766
221	0xa60e	-0.02365
222	0x2db4	0.0891
223	0x2c72	0.06946
224	0xafb8	-0.1206
225	0x2156	0.01042
226	0x1ec6	0.006615
227	0x9c76	-0.004356
228	0xb09f	-0.1444
229	0xadcd	-0.09064
230	0x3138	0.1631
231	0xb2d7	-0.2137
232	0xa393	-0.01479
233	0xa9a5	-0.0441
234	0x32bc	0.2104
235	0xae67	-0.10004
236	0x2f1c	0.1111
237	0xb637	-0.3884
238	0x2f80	0.1172
239	0xb0c7	-0.1493
240	0x2f31	0.11237
241	0xa8aa	-0.03644
242	0xb082	-0.1409
243	0x373b	0.452
244	0x3257	0.1981
245	0xb1ff	-0.1874
246	0xabaa	-0.05988
247	0x2ae0	0.0537
248	0x2d35	0.08136
249	0x33bd	0.2418
250	0xaa60	-0.0498
251	0xaee5	-0.1077
252	0x310a	0.1575
253	0x3502	0.313
254	0x2243	0.01223
255	0x2f34	0.11255

conv2.bias f2 [64]
0	0xa43b	-0.01653
1	0xa8b6	-0.0368
2	0x8194	-2.41e-05
3	0x286e	0.0346
4	0x26b3	0.02617
5	0xa5a9	-0.02211
6	0x259f	0.02196
7	0x24d2	0.01883
8	0xa7c2	-0.0303
9	0x198c	0.002708
10	0xa181	-0.01075
11	0x24e8	0.01917
12	0xa8c3	-0.0372
13	0x1a0d	0.002954
14	0xaa08	-0.04712
15	0x2700	0.02734
16	0x24d4	0.01886
17	0xa63e	-0.02438
18	0x1c70	0.004333
19	0xa74b	-0.02849
20	0x2897	0.03586
21	0xa712	-0.02762
22	0x24df	0.01903
23	0xa4e1	-0.01906
24	0x1a91	0.003206
25	0x0dfe	0.0003657
26	0x22cb	0.01327
27	0x285d	0.0341
28	0xa772	-0.02908
29	0x2489	0.01772
30	0x918c	-0.000677
31	0xa9c1	-0.04495
32	0xa497	-0.01793
33	0x2651	0.02467
34	0xa7b8	-0.03015
35	0xa5c8	-0.02258
36	0xa807	-0.03146
37	0x28db	0.03793
38	0x2810	0.03174
39	0x2529	0.02016
40	0xa9dc	-0.04578
41	0x132e	0.0008764
42	0xa5fb	-0.02336
43	0xa717	-0.0277
44	0x2662	0.02493
45	0x2612	0.02371
46	0x285e	0.03412
47	0xa2db	-0.01339
48	0x2587	0.02159
49	0x1d1e	0.004997
50	0x286c	0.03455
51	0x2762	0.02884
52	0x25a0	0.02197
53	0x1aff	0.003416
54	0x265c	0.02484
55	0x26a1	0.0259
56	0x23a0	0.01489
57	0x0a0d	0.0001847
58	0xa54d	-0.0207
59	0x8de3	-0.0003593
60	0xa6a5	-0.02596
61	0x1b37	0.003523
62	0xa56f	-0.02122
63	0x28f7	0.0388

conv2.weight f2 [64, 64, 3, 3]
0	0x2fa7	0.11957
1	0xac70	-0.06934
2	0xb0c9	-0.1495
3	0xad6e	-0.08484
4	0x29c0	0.04492
5	0x278c	0.02948
6	0x2c90	0.0713
7	0x29dd	0.0458
8	0x2de5	0.0921
9	0xb3de	-0.2458
10	0xb088	-0.1416
11	0xb4f6	-0.31
12	0xb4d5	-0.302
13	0xa0da	-0.009476
14	0xb69e	-0.4136
15	0xb51a	-0.3188
16	0x2ffe	0.1249
17	0xb23e	-0.1951
18	0x344e	0.269
19	0xae54	-0.0989
20	0x2668	0.02502
21	0xa05f	-0.00854
22	0x2ca6	0.07263
23	0x3050	0.1348
24	0x2881	0.0352
25	0xb2a6	-0.2078
26	0x30b2	0.1467
27	0xb05a	-0.136
28	0x2aac	0.05212
29	0x2c0f	0.0634
30	0x2b34	0.05627
31	0xb3d4	-0.2446
32	0xad4a	-0.08264
33	0xae63	-0.0998
34	0xb17e	-0.1716
35	0x2a9d	0.05167
36	0xb025	-0.1295
37	0x9fcc	-0.007614
38	0x335e	0.2302
39	0xb6d4	-0.4268
40	0xac14	-0.0637
41	0xae0a	-0.09436
42	0xb603	-0.3757
43	0xae9c	-0.1033
44	0xa46e	-0.0173
45	0x33d0	0.2441
46	0x2e89	0.1021
47	0x95ba	-0.001398
48	0x34f9	0.3108
49	0x328f	0.205
50	0x3021	0.129
51	0xa0ac	-0.009125
52	0x2a7e	0.05072
53	0x31a9	0.1769
54	0x33bc	0.2417
55	0xb3c4	-0.2427
56	0xb103	-0.1566
57	0x2dbd	0.08966
58	0x2f77	0.11664
59	0x2690	0.02563
60	0x2718	0.02771
61	0xb224	-0.1919
62	0x3158	0.167
63	0x31e4	0.1841
64	0x9843	-0.00208
65	0x1195	0.0006814
66	0x94ec	-0.001202
67	0x1946	0.002575
68	0x18e0	0.00238
69	0x99ab	-0.002768
70	0x980c	-0.001976
71	0x8fa1	-0.0004656
72	0x9661	-0.001557
73	0x9637	-0.001517
74	0x9503	-0.001224
75	0x8807	-0.0001229
76	0x08ed	0.0001503
77	0x96ad	-0.00163
78	0x14ed	0.001203
79	0x1263	0.0007796
80	0x1626	0.001501
81	0x2e4b	0.0983
82	0x9dc7	-0.005642
83	0x2b5d	0.05753
84	0xad4c	-0.08276
85	0x298b	0.0433
86	0xad01	-0.0782
87	0xac94	-0.07153
88	0x258a	0.02164
89	0xa798	-0.02966
90	0x153e	0.00128
91	0x8b98	-0.0002317
92	0x981a	-0.002003
93	0x199b	0.002737
94	0x185f	0.002134
95	0x143b	0.001033
96	0x1c03	0.003918
97	0x194f	0.002592
98	0x1143	0.0006423
99	0xadd9	-0.0914
100	0x26f2	0.02713
101	0x298a	0.04327
102	0x3133	0.1625
103	0x26fe	0.02731
104	0x2f71	0.1163
105	0x2bc6	0.06073
106	0xa149	-0.01032
107	0x8d75	-0.000333
108	0x1856	0.002117
109	0x0a4a	0.0001919
110	0x99f8	-0.002914
111	0x1dd9	0.00571
112	0x1776	0.0018215
113	0x8b63	-0.0002254
114	0x167a	0.001581
115	0x8b6b	-0.0002264
116	0x9126	-0.0006285
117	0x1ace	0.003323
118	0x1382	0.0009165
119	0x9ccd	-0.00469
120	0x1eb8	0.00656
121	0x181a	0.002003
122	0x9f27	-0.006985
123	0x1777	0.001822
124	0x1cb3	0.00459
125	0x9a49	-0.003069
126	0x1419	0.001
127	0x1538	0.001274
128	0x1619	0.001489
129	0x9243	-0.0007644
130	0x9353	-0.000894
131	0x91b5	-0.0006967
132	0x1390	0.000923
133	0x15be	0.001402
134	0x8bbe	-0.0002363
135	0x93cd	-0.0009522
136	0x9eef	-0.00677
137	0x9d49	-0.00516
138	0x9310	-0.000862
139	0x1501	0.001222
140	0x9a42	-0.003056
141	0x98ad	-0.002283
142	0x8998	-0.0001707
143	0x1da9	0.005527
144	0x183c	0.002068
145	0x1917	0.002485
146	0x0894	0.0001397
147	0x0823	0.0001262
148	0x01f3	2.974e-05
149	0x0937	0.0001591
150	0x100a	0.000493
151	0x8c15	-0.0002491
152	0x0c20	0.0002518
153	0x25a3	0.02202
154	0xa82a	-0.03253
155	0x9ed9	-0.006687
156	0x2955	0.04166
157	0xa6c1	-0.02638
158	0xa954	-0.04163
159	0x2433	0.0164
160	0x288c	0.03552
161	0x9b4f	-0.003569
162	0x98c2	-0.002323
163	0x9d84	-0.005386
164	0x991d	-0.002497
165	0x92b4	-0.0008183
166	0x919a	-0.000684
167	0x9da2	-0.0055
168	0x1d09	0.004917
169	0x9998	-0.002731
170	0x9c9e	-0.00451
171	0x22ec	0.01352
172	0x1c67	0.0043
173	0x1891	0.00223
174	0x0e15	0.0003712
175	0x20ae	0.00914
176	0x1fc5	0.007587
177	0x1f4b	0.007122
178	0x20da	0.009476
179	0x1ed9	0.006687
180	0x0ce1	0.0002978
181	0x1389	0.00092
182	0x9449	-0.001046
183	0x13b8	0.000942
184	0x1538	0.001274
185	0x1b79	0.003649
186	0x91ef	-0.0007243
187	0x9313	-0.0008636
188	0x0c69	0.0002692
189	0x9212	-0.000741
190	0x1986	0.002697
191	0x1a46	0.003063
192	0x135b	0.000898
193	0x1465	0.001073
194	0x1b09	0.003435
195	0x1866	0.002148
196	0x1ac2	0.0033
197	0x1d49	0.00516
198	0x183c	0.002068
199	0x1891	0.00223
200	0x18ff	0.00244
201	0x1581	0.001344
202	0x15c6	0.00141
203	0x099d	0.0001713
204	0x1570	0.0013275
205	0x0f28	0.0004368
206	0x902b	-0.000509
207	0x248e	0.01779
208	0x1fa0	0.007446
209	0x22bf	0.013176
210	0x27c8	0.0304
211	0x9dc1	-0.00562
212	0x9d63	-0.00526
213	0x1ed4	0.006668
214	0x9204	-0.0007343
215	0xa4d9	-0.01894
216	0x9a08	-0.002945
217	0x2d98	0.0874
218	0x299b	0.0438
219	0x2c23	0.06464
220	0xabcc	-0.0609
221	0xab22	-0.05573
222	0x29cc	0.0453
223	0x1ce8	0.00479
224	0x25a4	0.02203
225	0x0c9b	0.000281
226	0x19ca	0.002827
227	0x1a92	0.003208
228	0x153b	0.001277
229	0x126f	0.0007854
230	0x916a	-0.000661
231	0x1926	0.002514
232	0x1a6e	0.00314
233	0x14e6	0.001196
234	0x15dc	0.0014305
235	0x1828	0.00203
236	0x1961	0.002626
237	0x8cca	-0.0002923
238	0x1033	0.0005126
239	0x141a	0.001001
240	0x9119	-0.0006223
241	0x14ea	0.0012
242	0x1504	0.0012245
243	0x1737	0.001761
244	0x1484	0.001102
245	0x91c9	-0.000706
246	0x0211	3.153e-05
247	0x90e9	-0.0005994
248	0x9444	-0.001041
249	0x8009	-5.4e-07
250	0x8de5	-0.0003598
251	0x9449	-0.001046
252	0x16d1	0.001664
253	0x1b46	0.003551
254	0x209b	0.008995
255	0x264c	0.0246

conv3.bias f2 [32]
0	0x2577	0.02135
1	0x206b	0.00863
2	0x244f	0.01683
3	0x26f3	0.02715
4	0xa8bc	-0.037
5	0x2e7b	0.10126
6	0xa492	-0.01785
7	0xa84e	-0.03363
8	0x252c	0.0202
9	0x2515	0.01985
10	0xa024	-0.00809
11	0xa8a3	-0.03622
12	0x2444	0.01666
13	0x1c7e	0.004387
14	0x22fa	0.013626
15	0x24d5	0.01888
16	0xa66f	-0.02513
17	0xa73e	-0.02829
18	0x2829	0.0325
19	0x2626	0.02402
20	0x2b23	0.05576
21	0x2566	0.02109
22	0xa283	-0.01272
23	0xa774	-0.02911
24	0x26c4	0.02643
25	0xa1b3	-0.01113
26	0xa81c	-0.0321
27	0xa80f	-0.0317
28	0xa45c	-0.01703
29	0xa7de	-0.03073
30	0x2742	0.02835
31	0xa4ab	-0.01823

conv3.weight f2 [32, 64, 3, 3]
0	0xb07d	-0.1403
1	0x378d	0.472
2	0x3054	0.1353
3	0xb0d8	-0.1514
4	0xb21f	-0.1913
5	0xaf8f	-0.1181
6	0x3757	0.4587
7	0xb522	-0.3208
8	0xaeb0	-0.1045
9	0x1e0c	0.005905
10	0xade7	-0.0922
11	0xb4aa	-0.2915
12	0x22a5	0.01298
13	0x325f	0.1991
14	0x3516	0.3179
15	0x3434	0.2627
16	0xa7e5	-0.03084
17	0x360b	0.3777
18	0xb6ea	-0.4321
19	0xb5b1	-0.3557
20	0xb3ba	-0.2415
21	0x34e3	0.3054
22	0xb579	-0.342
23	0x3463	0.2742
24	0xb263	-0.1996
25	0xa5d3	-0.02275
26	0xaf14	-0.1106
27	0x30a8	0.1455
28	0x2a76	0.05048
29	0x2e0d	0.09454
30	0xb62d	-0.386
31	0xaf91	-0.1182
32	0x9e76	-0.00631
33	0x9e66	-0.00625
34	0x9e66	-0.00625
35	0x9e76	-0.00631
36	0x9e88	-0.00638
37	0x9e87	-0.006374
38	0x9e7f	-0.006344
39	0x9ee2	-0.00672
40	0x9ea1	-0.006474
41	0x9e6d	-0.006275
42	0x9f4a	-0.00712
43	0x9e95	-0.006428
44	0x9e41	-0.006107
45	0x9e32	-0.00605
46	0x9e1f	-0.005978
47	0x9e27	-0.00601
48	0x9e54	-0.00618
49	0x9e53	-0.006176
50	0x9e54	-0.00618
51	0x9e3f	-0.0061
52	0x9e44	-0.00612
53	0x9e43	-0.006115
54	0xa00a	-0.00789
55	0x9eff	-0.006832
56	0x9edc	-0.0067
57	0xa043	-0.00832
58	0x9ef3	-0.006786
59	0x9e11	-0.005924
60	0xa23a	-0.01216
61	0xa004	-0.00784
62	0x9e00	-0.00586
63	0x9df3	-0.00581
64	0x9e27	-0.00601
65	0x9e3e	-0.006096
66	0x9de3	-0.00575
67	0x9da8	-0.005524
68	0x9d84	-0.005386
69	0x9a17	-0.002974
70	0x9acc	-0.003319
71	0x9ba1	-0.003725
72	0x9e3e	-0.006096
73	0x9e3f	-0.0061
74	0x9e40	-0.006104
75	0x9e3e	-0.006096
76	0x9e3d	-0.006092
77	0x9e3c	-0.00609
78	0x9e40	-0.006104
79	0x9e42	-0.00611
80	0x9e42	-0.00611
81	0x9e52	-0.006172
82	0x9e52	-0.006172
83	0x9e68	-0.006256
84	0x9e42	-0.00611
85	0x9e48	-0.006134
86	0x9e4f	-0.00616
87	0x9e46	-0.006126
88	0x9e4c	-0.00615
89	0x9e5a	-0.006203
90	0x9f9c	-0.00743
91	0xa349	-0.01423
92	0xa6de	-0.02682
93	0x9dc9	-0.00565
94	0xa133	-0.010155
95	0xa0a8	-0.009094
96	0x9e20	-0.00598
97	0xa178	-0.01068
98	0xa593	-0.02177
99	0x9e4d	-0.006153
100	0x9e5f	-0.00622
101	0x9e7e	-0.00634
102	0x9e34	-0.006058
103	0x9e33	-0.006054
104	0x9e37	-0.00607
105	0x9e35	-0.00606
106	0x9e32	-0.00605
107	0x9e32	-0.00605
108	0x9d4e	-0.00518
109	0x9ccb	-0.00468
110	0x9d79	-0.005344
111	0x9de6	-0.00576
112	0x9deb	-0.00578
113	0x9dfe	-0.00585
114	0x9e31	-0.006046
115	0x9e34	-0.006058
116	0x9e35	-0.00606
117	0x9e03	-0.00587
118	0x9e04	-0.005875
119	0x9e07	-0.005886
120	0x9e29	-0.006016
121	0x9e20	-0.00598
122	0x9e1c	-0.005966
123	0x9e34	-0.006058
124	0x9e31	-0.006046
125	0x9e30	-0.006042
126	0x9b72	-0.003635
127	0x9c21	-0.004032
128	0x9caa	-0.004555
129	0x9982	-0.00269
130	0x99bc	-0.0028
131	0x9c8e	-0.004448
132	0x99a4	-0.002754
133	0x9873	-0.002172
134	0x9ca8	-0.004547
135	0x9e4b	-0.006145
136	0x9e45	-0.006123
137	0x9e43	-0.006115
138	0x9e43	-0.006115
139	0x9e3d	-0.006092
140	0x9e3a	-0.00608
141	0x9e48	-0.006134
142	0x9e44	-0.00612
143	0x9e45	-0.006123
144	0x99f9	-0.002916
145	0x9483	-0.0011015
146	0x9c38	-0.00412
147	0x9e15	-0.00594
148	0x9e33	-0.006054
149	0x9e2a	-0.00602
150	0x9e2c	-0.006027
151	0x9e31	-0.006046
152	0x9e61	-0.00623
153	0x9e2e	-0.006035
154	0x9e39	-0.006077
155	0x9e41	-0.006107
156	0x9e34	-0.006058
157	0x9e38	-0.006073
158	0x9e3e	-0.006096
159	0x9e31	-0.006046
160	0x9e36	-0.006065
161	0x9e3c	-0.00609
162	0x9d7a	-0.00535
163	0x9e1a	-0.00596
164	0x9e3f	-0.0061
165	0x9e3c	-0.00609
166	0x9e0c	-0.005905
167	0x9e03	-0.00587
168	0x9e54	-0.00618
169	0x9ec5	-0.00661
170	0x9eff	-0.006832
171	0x9e34	-0.006058
172	0x9e33	-0.006054
173	0x9e3a	-0.00608
174	0x9e3f	-0.0061
175	0x9e3c	-0.00609
176	0x9e36	-0.006065
177	0x9e2b	-0.006023
178	0x9e22	-0.00599
179	0x9e26	-0.006004
180	0xa884	-0.03528
181	0xa83f	-0.03317
182	0xaaeb	-0.05405
183	0xa443	-0.01665
184	0xa42e	-0.01633
185	0xa530	-0.02026
186	0xa8a1	-0.03616
187	0xa944	-0.04114
188	0xa9a6	-0.04413
189	0x9e00	-0.00586
190	0x9de1	-0.00574
191	0x9e03	-0.00587
192	0x9da1	-0.005497
193	0x9dd8	-0.005707
194	0x9de2	-0.005745
195	0x9e18	-0.00595
196	0x9e22	-0.00599
197	0x9e10	-0.00592
198	0x9cc3	-0.00465
199	0x9dc8	-0.005646
200	0x9cf9	-0.004856
201	0x9b0c	-0.00344
202	0x9bd1	-0.003817
203	0x9c7f	-0.00439
204	0x9ba9	-0.00374
205	0x9852	-0.00211
206	0x9c43	-0.00416
207	0x9e50	-0.006165
208	0x9e4c	-0.00615
209	0x9e29	-0.006016
210	0x9e49	-0.006138
211	0x9e41	-0.006107
212	0x9e02	-0.005867
213	0x9e45	-0.006123
214	0x9e4a	-0.00614
215	0x9e47	-0.00613
216	0x9e16	-0.005943
217	0x9e04	-0.005875
218	0x9ddd	-0.005726
219	0x9e70	-0.006287
220	0x9e6e	-0.00628
221	0x9e64	-0.00624
222	0x9e58	-0.006195
223	0x9e55	-0.006184
224	0x9e49	-0.006138
225	0x96e7	-0.001685
226	0x9376	-0.0009108
227	0x8d3e	-0.00032
228	0x8ff4	-0.0004854
229	0x911e	-0.0006247
230	0x8f25	-0.000436
231	0x9e3e	-0.006096
232	0x9e45	-0.006123
233	0x9e3a	-0.00608
234	0x9e29	-0.006016
235	0x9e54	-0.00618
236	0x9e7b	-0.00633
237	0x9e36	-0.006065
238	0x9e51	-0.00617
239	0x9e59	-0.0062
240	0x9e32	-0.00605
241	0x9e5c	-0.00621
242	0x9e53	-0.006176
243	0x9e41	-0.006107
244	0x9e3c	-0.00609
245	0x9e3f	-0.0061
246	0x9e49	-0.006138
247	0x9e47	-0.00613
248	0x9e48	-0.006134
249	0x9e4a	-0.00614
250	0x9e47	-0.00613
251	0x9e48	-0.006134
252	0x9e36	-0.006065
253	0x9e3b	-0.006084
254	0x9e45	-0.006123
255	0x9e3d	-0.006092

conv4.bias f2 [9]
0	0xa3bc	-0.01511
1	0xa4e3	-0.01909
2	0xa8a3	-0.03622
3	0xa5bf	-0.02245
4	0x2b03	0.05478
5	0x21c3	0.01125
6	0x2ac7	0.05295
7	0x269b	0.0258
8	0xa49e	-0.01804

conv4.weight f2 [9, 32, 3, 3]
0	0xac77	-0.06976
1	0x2e70	0.1006
2	0xb782	-0.4692
3	0xb627	-0.3845
4	0xb570	-0.3398
5	0x3970	0.6797
6	0x2a21	0.04788
7	0xaffd	-0.1248
8	0x300c	0.1265
9	0x17e9	0.001931
10	0x100f	0.0004954
11	0x97f0	-0.001938
12	0x1923	0.002508
13	0x1576	0.001333
14	0x14bc	0.001156
15	0x1cad	0.004566
16	0x19b7	0.00279
17	0x16bb	0.001643
18	0x1da2	0.0055
19	0x1d92	0.00544
20	0x1c81	0.0044
21	0x1d57	0.005215
22	0x1d12	0.00495
23	0x1c08	0.003937
24	0x1cda	0.004738
25	0x1c33	0.0041
26	0x1bf1	0.003878
27	0x1d1d	0.004993
28	0x1bb0	0.003754
29	0x1af1	0.00339
30	0x1ca0	0.004517
31	0x1c30	0.00409
32	0x1b9f	0.003721
33	0x1c8e	0.004448
34	0x1d4c	0.005173
35	0x1c81	0.0044
36	0x1baf	0.003752
37	0x1b37	0.003523
38	0x197f	0.002684
39	0x1981	0.002687
40	0x17fd	0.00195
41	0x1891	0.00223
42	0x1640	0.001526
43	0x185d	0.00213
44	0x19a3	0.002752
45	0x184e	0.002102
46	0x24d9	0.01894
47	0xa731	-0.02809
48	0x27c3	0.03032
49	0x2b24	0.0558
50	0xa488	-0.0177
51	0x1f7c	0.00731
52	0xacbf	-0.07416
53	0x95ce	-0.001417
54	0x1551	0.001298
55	0x1962	0.002628
56	0x1905	0.00245
57	0x1c3f	0.004147
58	0x1bc4	0.003792
59	0x1971	0.002657
60	0x18b4	0.002296
61	0x1966	0.002636
62	0x17e1	0.001924
63	0x93a8	-0.0009346
64	0x80f3	-1.45e-05
65	0x0b79	0.000228
66	0x1314	0.000864
67	0x12f3	0.0008483
68	0x1a2c	0.003014
69	0x1803	0.001959
70	0x1bd8	0.00383
71	0x108a	0.000554
72	0x1aec	0.00338
73	0x1b95	0.003702
74	0x1784	0.001835
75	0x1da6	0.005516
76	0x1cfb	0.004864
77	0x19bb	0.002798
78	0x1d36	0.00509
79	0x1ba1	0.003725
80	0x1aca	0.003315
81	0xa190	-0.010864
82	0x29e4	0.04602
83	0xa55d	-0.02095
84	0x2a4f	0.0493
85	0x2df0	0.0928
86	0x0f4c	0.0004454
87	0xad61	-0.08405
88	0x2414	0.01593
89	0xa46a	-0.01724
90	0x9c5c	-0.004257
91	0x1b4f	0.003569
92	0x1955	0.002604
93	0x9318	-0.000866
94	0x1c94	0.00447
95	0x1186	0.0006742
96	0x812b	-1.78e-05
97	0x1856	0.002117
98	0x1a47	0.003065
99	0x16b3	0.001636
100	0x1aff	0.003416
101	0x157d	0.00134
102	0x0801	0.0001222
103	0x1a52	0.003086
104	0x15fc	0.001461
105	0x120b	0.0007377
106	0x1a1b	0.002981
107	0x1a68	0.003128
108	0x1a70	0.003143
109	0x187d	0.002192
110	0x99ac	-0.00277
111	0x8fb9	-0.0004714
112	0x18e4	0.002388
113	0x98c1	-0.002321
114	0x91ed	-0.0007234
115	0x1c22	0.004036
116	0x1ac1	0.003298
117	0x2093	0.008934
118	0xa077	-0.00872
119	0x1d40	0.005127
120	0x2849	0.03348
121	0x2318	0.013855
122	0x247b	0.0175
123	0x20f3	0.00967
124	0x233e	0.014145
125	0xa2a8	-0.013
126	0x19d8	0.002853
127	0x1a88	0.00319
128	0x1852	0.00211
129	0x1c26	0.00405
130	0x1bbe	0.00378
131	0x1aa2	0.003239
132	0x1ac7	0.00331
133	0x1b21	0.00348
134	0x1a96	0.003216
135	0x1465	0.001073
136	0x98b1	-0.00229
137	0x9aa1	-0.003237
138	0x1908	0.002457
139	0x180d	0.001978
140	0x97b7	-0.0018835
141	0x9a38	-0.003036
142	0x9421	-0.001008
143	0x93b2	-0.0009394
144	0x1739	0.001763
145	0x129e	0.000808
146	0x94eb	-0.001201
147	0x19a6	0.002758
148	0x1683	0.00159
149	0x1043	0.00052
150	0x0dc4	0.000352
151	0x0c9b	0.000281
152	0x84af	-7.147e-05
153	0x985d	-0.00213
154	0x9da5	-0.005512
155	0x9a4b	-0.003073
156	0x9a45	-0.003061
157	0x15dd	0.001431
158	0x9ac5	-0.003305
159	0x9a0e	-0.002956
160	0x9ac1	-0.003298
161	0x9851	-0.002108
162	0x98bc	-0.002312
163	0x2c1a	0.0641
164	0xa6af	-0.02611
165	0x1f65	0.00722
166	0x294e	0.04144
167	0xa489	-0.01772
168	0x9d4d	-0.005177
169	0x2103	0.00979
170	0xa71d	-0.02779
171	0x180e	0.00198
172	0x12d7	0.000835
173	0x06b9	0.0001026
174	0x1842	0.002079
175	0x15d4	0.001423
176	0x0e53	0.000386
177	0x1953	0.0026
178	0x1aab	0.003256
179	0x161d	0.0014925
180	0x283a	0.03302
181	0xaa26	-0.04803
182	0xa75f	-0.0288
183	0x2c86	0.0707
184	0x2c13	0.06366
185	0x24bb	0.01848
186	0x280f	0.0317
187	0x267b	0.02531
188	0xa559	-0.02089
189	0x1dce	0.00567
190	0x195e	0.00262
191	0x150d	0.001233
192	0x1caf	0.004574
193	0x1a58	0.003098
194	0x11aa	0.0006914
195	0x18dc	0.002373
196	0x13fc	0.0009747
197	0x14ee	0.001204
198	0x1989	0.002703
199	0x18b0	0.002289
200	0x15e4	0.001438
201	0x1c5c	0.004257
202	0x1b51	0.003572
203	0x1949	0.00258
204	0x1b2d	0.003504
205	0x1a9f	0.003233
206	0x14b6	0.00115
207	0x11c9	0.000706
208	0x1951	0.002596
209	0x182b	0.002035
210	0x1b31	0.003511
211	0x1c14	0.003983
212	0x15c0	0.001404
213	0x1932	0.002537
214	0x1550	0.001297
215	0x1689	0.0015955
216	0x1b31	0.003511
217	0x1c24	0.004044
218	0x1954	0.002602
219	0x1d8a	0.00541
220	0x1d59	0.005222
221	0x1b3d	0.003534
222	0x1c83	0.004406
223	0x1c99	0.00449
224	0x1ba9	0.00374
225	0x100c	0.000494
226	0x1875	0.002176
227	0x1511	0.001237
228	0x1986	0.002697
229	0x1c94	0.00447
230	0x1c0b	0.00395
231	0x1ac8	0.003311
232	0x1ac0	0.003296
233	0x1b1b	0.00347
234	0x1d0a	0.00492
235	0x1d99	0.005466
236	0x1cae	0.00457
237	0x1c54	0.004227
238	0x1cba	0.004616
239	0x1ad0	0.003326
240	0x1cbc	0.004623
241	0x1df0	0.0058
242	0x1c53	0.004223
243	0x1be1	0.003847
244	0x1b26	0.00349
245	0x1a02	0.002934
246	0x1d70	0.00531
247	0x1d33	0.005077
248	0x1ba2	0.003727
249	0x1d0d	0.004932
250	0x1cde	0.004753
251	0x1c7d	0.004383
252	0xa075	-0.008705
253	0x9b8c	-0.003685
254	0x9d43	-0.00514
255	0x1c44	0.004166
